earthquakes/models/earthquake_model.pt (torch, 64452 bytes, 19 tensors)

0.weight f4 [128, 22]
-0.0001882802 -0.00057424966 -0.00042796216 -0.0017812375 -0.0005649641 -0.00061473664 -3.395321e-05 -0.00029144692
3.4642213e-05 -0.0017244915 -0.0005436362 -0.00040523254 -0.000709988 0.00025179784 -0.0016713791 -0.00067683007
0.0001137705 -8.3666e-05 -0.0014450086 -3.395321e-05 -1.7682956e-05 -0.00039345017 0.018882547 0.051124316
0.03166213 -0.025852598 0.034317918 0.06690451 -0.020107992 0.03610436 -0.017431814 -0.025672399
0.047500364 0.048828878 -0.055292316 -0.018509693 -0.03041627 0.03749648 -0.022011416 -0.04278947
0.036591142 -0.020107992 -0.025815561 -0.015781466 -0.0005225287 -0.0036565997 4.3111122e-05 -0.00041604828
-0.0009714466 -0.0017214308 0.00075503247 -0.0011006201 0.0014505509 -0.00043119834 -0.0010217803 6.082901e-05
-0.0005417041 -0.0025890202 -0.00047416874 -0.0008832521 0.0018128236 3.933659e-05 0.0013054826 0.00075503247
0.0007122796 -0.0005543306 -0.018385077 0.02254327 0.03254224 -0.014651872 0.021520706 0.0035367552
0.012233334 0.03500305 0.026618013 -0.015090117 0.021389546 0.03184114 0.0035231768 0.010862051
-0.019372547 0.0053693713 0.008072509 -0.000658333 0.0057637766 0.012233334 0.019776626 -0.002776783
0.022600152 -0.01615372 -0.004890365 -0.005283493 0.0033314917 0.0045205657 -0.0047947704 -0.011205268
-0.014261363 -0.0061866003 -0.00044695096 -0.021812765 -0.00013043189 0.007818999 -0.01232893 0.00051518483
0.0034638306 0.0021115562 -0.007129292 -0.0047947704 0.016668558 -0.0012017715 -0.011826277 0.029330317
0.012326786 0.0056952345 0.01206014 0.01621489 -0.0025332868 0.008776553 -0.0017160511 0.0058032065
0.011561317 0.010251766 -0.006259746 0.0007015224 0.0047394545 0.00961478 0.010554606 -0.0048681414
0.0019758225 -0.0025332868 0.013643014 0.008143489 0.00031204327 -0.0009754591 0.0037301665 0.0050433343
0.0014425114 -0.0005079895 -0.0004536415 0.0029919764 0.0008064922 0.0053192135 0.0016539635 0.0041478234
0.0019812852 -0.00060873607 0.005592533 0.0038249271 0.0015929202 -0.00037904063 -0.0011167821 -0.0004536415
0.001056501 -0.0010920827 -0.0082753 0.0017670771 -0.0039557205 0.022100128 0.022808643 0.0119953
-0.002428739 0.0065610055 -0.008497144 0.020979801 0.027646782 0.020920902 0.017653884 -0.014935549
0.019750742 0.014686532 0.009216728 0.009979259 0.0061342474 -0.002428739 -0.031581324 0.0028862408
0.030588964 -0.04941242 -0.017539157 0.067503735 0.008746397 -0.04826495 -0.022180624 -0.004477351
0.00064915116 0.062617205 0.009211174 -0.010783013 0.0450146 0.025779204 0.056663368 0.024375658
-0.017505066 0.050354164 -0.013509073 -0.022180624 0.0050883815 0.024101436 -0.034030594 0.030698754
0.024964277 0.013022497 0.019789401 0.006489081 -0.011801511 0.03048488 -0.0076388973 0.011707704
0.023309916 0.016815431 -0.014770983 0.024704373 0.010657489 0.023363264 0.010021785 -0.01583869
-0.011674857 -0.011801511 0.010462552 -0.0044375327 -0.017708234 -0.010869253 -0.014633822 0.055487607
-0.005178749 0.5736549 0.17367165 -0.003025364 0.004613827 -0.036964327 0.024230069 0.030140946
0.012882842 0.0013348457 -0.02049666 0.0014546862 0.007634584 0.025373025 0.018950788 0.14654532
0.010653392 -0.013710481 -0.011303659 0.005960061 0.0131521495 -0.087079465 0.019440586 0.6084525
0.12521517 0.042023834 0.008007976 0.095186494 -0.028143486 -0.052602947 0.007430791 -0.026582595
00000000: 156d 45b9 3e89 16ba 1c60 e0b9 6a78 e9ba
00000010: 191a 14ba 4726 21ba fb68 0eb8 58cd 98b9
00000020: cb4c 1138 5508 e2ba cf82 0eba 6475 d4b9
00000030: 7d1e 3aba bc03 8439 2d12 dbba 4c6d 31ba
00000040: 1298 ee38 d775 afb8 7166 bdba fb68 0eb8
00000050: dc55 94b7 fd47 ceb9 92af 9a3c bb67 513d
00000060: 26b0 013d d4c8 d3bc f290 0c3d 3b05 893d
00000070: 84b9 a4bc 2ae2 133d 2acd 8ebc ec4e d2bc
00000080: be8f 423d ca00 483d 327a 62bd a4a1 97bc
00000090: 8b2b f9bc e995 193d 4951 b4bc 0344 2fbd
000000a0: 98e0 153d 84b9 a4bc 287b d3bc 2248 81bc
000000b0: 4ffa 08ba 90a3 6fbb 37d2 3438 0e21 dab9
000000c0: aea8 7eba a2a1 e1ba 5fed 453a af42 90ba
000000d0: 6920 be3a 7612 e2b9 42ed 85ba a722 7f38
000000e0: 2601 0eba 8dac 29bb da99 f8b9 0c8a 67ba
000000f0: 449c ed3a 58fd 2438 ba1c ab3a 5fed 453a
00000100: 46b8 3a3a 7f50 11ba 4d9c 96bc aaac b83c
00000110: 034b 053d 680e 70bc 314c b03c e8c8 673b
00000120: 526e 483c 5c5f 0f3d 050e da3c 8a3c 77bc
00000130: 2139 af3c db6b 023d 19e5 663b bef6 313c
00000140: 2db3 9ebc 8df1 af3b 8f42 043c fb93 2cba
00000150: 10de bc3b 526e 483c 9702 a23c b0fa 35bb
00000160: f423 b93c ce54 84bc 5b3f a0bb 2721 adbb
00000170: 2855 5a3b 4121 943b 731d 9dbb 4d96 37bc
00000180: 7ea8 69bc f7b8 cabb be54 eab9 afb0 b2bc
00000190: 8bc4 08b9 421b 003c 48ff 49bc 780d 073a
000001a0: 6f01 633b 0962 0a3b d69c e9bb 731d 9dbb
000001b0: 808c 883c c384 9dba 00c3 41bc 2246 f03c
000001c0: 4af6 493c 179f ba3b e597 453c 17d5 843c
000001d0: 8005 26bb 88cb 0f3c 1fed e0ba d328 be3b
000001e0: ae6b 3d3c 06f7 273c 8e1e cdbb 5fe6 373a
000001f0: 6d4d 9b3b 4f87 1d3c 3aed 2c3c ee84 9fbb
00000200: cd7c 013b 8005 26bb f386 5f3c 456c 053c
00000210: bd99 a339 f4b5 7fba cf75 743b 8e42 a53b
00000220: a712 bd3a 992a 05ba bbd6 edb9 0915 443b
00000230: c66a 533a cc4c ae3b cec9 d83a 77ea 873b
00000240: 73d8 013b 9693 1fba 9141 b73b a1ab 7a3b
00000250: 88c9 d03a f9b9 c6b9 fd60 92ba bbd6 edb9
00000260: 4a7a 8a3a 3724 8fba 2095 07bc 459d e73a
00000270: fd9e 81bb 540b b53c 31d9 ba3c ef87 443c
00000280: 7b2b 1fbb b4fd d63b 9b37 0bbc d5dd ab3c
00000290: 817b e23c 5062 ab3c e19e 903c 3cb4 74bc
000002a0: 4fcc a13c c89f 703c c201 173c 0c80 233c
000002b0: cc01 c93b 7b2b 1fbb 6b5b 01bd 1627 3d3b
000002c0: b595 fa3c ad64 4abd 47ae 8fbc 663f 8a3d
000002d0: 0c4d 0f3c 78b1 45bd 24b4 b5bc beb6 92bb
000002e0: cc2b 2a3a 733d 803d 77ea 163c 3cab 30bc
000002f0: 3b61 383d e92e d33c d917 683d 76af c73c
00000300: c966 8fbc 2b40 4e3d 2955 5dbc 24b4 b5bc
00000310: 70bc a63b 6070 c53c aa63 0bbd f47b fb3c
00000320: e281 cc3c 505c 553c 621d a23c 5ba2 d43b
00000330: 205b 41bc 6dbb f93c b74f fabb abd1 3f3c
00000340: 70f4 be3c 84c0 893c fe01 72bc d360 ca3c
00000350: c09c 2e3c 5164 bf3c 6a32 243c 24c0 81bc
00000360: e647 3fbc 205b 41bc 206b 2b3c b968 91bb
00000370: dc10 91bc f414 32bc b3c2 6fbc f946 633d
00000380: 7fb2 a9bb 0cdb 123f fbd6 313e 2f45 46bb
00000390: 962f 973b e867 17bd 237e c63c 25ea f63c
000003a0: 8e12 533c fdf5 ae3a 9de8 a7bc 2bab be3a
000003b0: 882b fa3b 17db cf3c af3e 9b3c fa0f 163e
000003c0: 918b 2e3c eda1 60bc fb32 39bc 9e4c c33b
000003d0: 1d7c 573c b856 b2bd dd41 9f3c 8bc3 1b3f
000003e0: 6838 003e 2f21 2c3d e333 033c 23f1 c23d
000003f0: 2b8d e6bc 3076 57bd fe7d f33b bec3 d9bc

0.bias f4 [128]
-6.594145e-05 0.0027621912 -0.0006833494 -0.031220887 -0.000948224 0.00229503 0.00037457765 0.004352478
-0.022605663 0.017053684 -0.70006585 -0.70672184 -5.0357914e-05 0.0030286594 -0.00018806626 -0.0299092
0.0026739019 0.019955307 0.0010129107 -0.0022112974 -0.730262 0.013149786 -0.0063287555 -0.5879437
-0.0026115056 0.0069337557 0.018430164 0.0015165636 0.00010308565 -4.602558e-05 -0.052695323 -0.6720691
0.0021405881 -0.007905969 -0.4221188 0.0031332427 0.012286637 -0.0011589401 -0.0028169162 -0.0013358566
-0.02929128 -0.75302064 -0.0030409459 -0.029944919 0.0010752853 -0.39692745 -0.012136072 0.001792475
0.012794137 0.00075882906 -0.005939421 -0.0025154038 -0.018994236 -0.0009626423 0.0060071493 -0.015464776
0.042228602 0.0004912421 0.00037905306 -0.051038336 -0.027060179 -0.0010273082 -0.49398243 -0.061588712
0.0068481797 -0.00021445738 -0.0010605702 -0.76343864 -0.0012916187 0.0087066945 0.013423624 -0.0063791
0.0010730715 0.00669245 0.00081308815 -0.6938556 -0.57262105 0.0029635306 -0.013668596 -0.013788035
-0.006158596 0.0011247899 -9.832871e-05 0.0013158614 -0.005783885 0.0039213668 -0.00917769 -0.0014602988
-0.0059513357 -0.0119792465 -0.034321588 0.003652959 -0.00090588874 0.0044911285 0.0048119714 -0.00508574
-0.002191726 -0.007173818 -0.032632224 -0.02353269 -0.5258797 -0.02161705 -0.03202237 -0.0016576988
0.013746571 -0.00187888 -0.008966879 0.0039539426 0.0019466609 -0.0050081913 -0.0001808401 -0.22255361
-0.00095290254 -0.02031911 -0.0032134075 -0.0051541403 0.014889574 -0.021035317 -0.0073306127 0.0052206647
-0.008069088 -0.0650794 -0.64430505 -0.006514216 -0.009460553 0.004227261 -0.0017844514 -0.00041244685
00000000: 0c4a 8ab8 e105 353b cd22 33ba f2c2 ffbc
00000010: 3c92 78ba 3768 163b f662 c439 3b9f 8e3b
00000020: 832f b9bc 2bb4 8b3c 8437 33bf b9eb 34bf
00000030: 6637 53b8 797c 463b a733 45b9 2304 f5bc
00000040: a13c 2f3b 5079 a33c a5c3 843a 6aeb 10bb
00000050: 73f2 3abf 3372 573c 7361 cfbb 7a83 16bf
00000060: cb25 2bbb 8f34 e33b dbfa 963c 6ec7 c63a
00000070: b02f d838 970b 41b8 0dd7 57bd b80c 2cbf
00000080: 1c49 0c3b 0a88 01bc f51f d8be 1757 4d3b
00000090: e44d 493c 94e7 97ba 039c 38bb e917 afba
000000a0: 44f4 efbc f6c5 40bf 9b4a 47bb 0c4f f5bc
000000b0: 96f0 8c3a 133a cbbe 60d6 46bc 7bf1 ea3a
000000c0: 809e 513c 28ec 463a 799f c2bb 79d9 24bb
000000d0: cd99 9bbc d559 7cba 9fd7 c43b f95f 7dbc
000000e0: e6f7 2c3d b3c6 003a a4bb c639 930d 51bd
000000f0: 4fad ddbc bea6 86ba 44eb fcbe 7244 7cbd
00000100: b266 e03b f7df 60b9 d502 8bba b770 43bf
00000110: 884b a9ba 86a6 0e3c c3ee 5b3c c507 d1bb
00000120: 4ea6 8c3a 574c db3b 6c25 553a 85a0 31bf
00000130: 4b97 12bf cb37 423b 3ff2 5fbc 36e7 61bc
00000140: 0cce c9bb b06d 933a d335 ceb8 fb78 ac3a
00000150: be86 bdbb cf7e 803b 065e 16bc 7f67 bfba
00000160: 6c03 c3bb 9a44 44bc cb94 0cbd 7b66 6f3b
00000170: 2a79 6dba 512a 933b bead 9d3b 47a6 a6bb
00000180: 0fa3 0fbb 5912 ebbb 5ea9 05bd a1c7 c0bc
00000190: 0da0 06bf 3d16 b1bc e329 03bd 2447 d9ba
000001a0: 4c39 613c c044 f6ba d1e9 12bc 1390 813b
000001b0: 1a27 ff3a c11b a4bb e59f 3db9 18e5 63be
000001c0: 35cc 79ba 4374 a6bc 0898 52bb 10e4 a8bb
000001d0: 66f3 733c 4252 acbc a335 f0bb 1c12 ab3b
000001e0: 3534 04bc 5948 85bd 2df1 24bf 3475 d5bb
000001f0: 6f00 1bbc d684 8a3b 41e4 e9ba ae3d d8b9

2.weight f4 [128]
-0.00047784983 0.07095078 -0.00077872287 0.02853437 0.0028119155 0.011770137 0.0016071122 -0.011883706
0.0406329 0.027851373 0.23710509 0.29653648 3.4720317e-05 -0.0020878795 0.0036669108 0.007888138
0.011531767 0.011997967 0.050071936 0.0026813976 0.24915545 -0.015777903 0.0035365068 0.1748543
-0.002759556 -0.011781714 -0.025155706 0.0029488748 0.0039799865 -0.003332647 0.14208736 0.21885248
-0.0019918242 0.008715757 0.19463824 -0.028600184 0.067933604 -0.0038785723 0.17390542 -0.00034322255
-0.08755955 0.2667223 0.00590724 0.07277606 0.009938932 0.17206958 0.015063329 -0.003986847
-0.0063361 -0.0014199385 -0.0010683455 0.007295015 0.015541226 0.09628288 0.07613945 0.012980401
0.011119462 0.0027452644 0.039100893 0.14049844 0.07283035 -0.0042819977 0.15714614 0.14279304
-0.012763034 0.0013791574 -0.0017649225 0.25688744 0.041642155 0.0012794299 -0.0025349583 -0.035221275
0.078553446 0.04792358 -0.0015406319 0.20078926 0.19774376 0.0030685582 0.037626788 0.024635514
-0.005437999 0.0009207994 -3.445614e-05 0.0018545582 0.059128866 0.003136117 -0.008798296 -0.006683016
-0.012015347 -0.005745846 -0.07793996 0.0015698527 -0.0009674325 0.00023552372 -0.0090450235 -0.05439809
0.0016413489 -0.0037588123 0.025532035 -0.023292167 0.1947067 0.053074636 -0.04624655 0.0013896363
-0.0020055524 2.6842506e-05 -0.043206006 0.0034225977 0.010755319 0.01291754 0.00023444826 0.15381543
0.0011790812 0.011530858 -0.025395134 -0.018194534 0.0017029354 0.053121958 0.0076679634 -0.0033035646
-0.0070061744 0.15409054 0.21305454 0.011285082 0.0050209532 0.003781484 -0.00014163127 0.0011368409
00000000: eb87 fab9 a44e 913d 3523 4cba e9c0 e93c
00000010: 1d48 383b 88d7 403c bda5 d23a e0b3 42bc
00000020: af6e 263d 9028 e43c adcb 723e a1d3 973e
00000030: a8a0 1138 ced4 08bb 8e50 703b 403d 013c
00000040: bdef 3c3c 1f93 443c 3b18 4d3d 63ba 2f3b
00000050: 9b22 7f3e a940 81bc bdc4 673b 010d 333e
00000060: abd9 34bb 1708 41bc 5713 cebc e941 413b
00000070: 8c6a 823b 8a68 5abb 597f 113e dd1a 603e
00000080: 4489 02bb 89cc 0e3c 3f4f 473e ef4a eabc
00000090: c620 8b3d a52f 7ebb 4314 323e 8df2 b3b9
000000a0: 6c52 b3bd d38f 883e 8591 c13b 9d0b 953d
000000b0: e7d6 223c 0233 303e 2ecc 763c 19a4 82bb
000000c0: 0f9f cfbb 3b1d baba ba07 8cba 050b ef3b
000000d0: a0a0 7e3c f52f c53d 00ef 9b3d bfab 543c
000000e0: 672e 363c e5e9 333b 4228 203d d3de 0f3e
000000f0: 1428 953d 0050 8cbb ebea 203e 5738 123e
00000100: 0b1c 51bc d8c4 b43a f954 e7ba c086 833e
00000110: f790 2a3d 8bb2 a73a 8b21 26bb 2f44 10bd
00000120: a1e0 a03d 844b 443d 07ef c9ba b39b 4d3e
00000130: 577d 4a3e dd19 493b 8c1e 1a3d 6bd0 c93c
00000140: 3e31 b2bb cd61 713a 0085 10b8 a614 f33a
00000150: 1c31 723d 5087 4d3b ba26 10bc 34fd dabb
00000160: 05dc 44bc a647 bcbb fc9e 9fbd 84c3 cd3a
00000170: 4c9b 7dba ebf6 7639 9431 14bc 88d0 5ebd
00000180: 8822 d73a 6856 76bb 8f28 d13c 37cf bebc
00000190: 3161 473e ca64 593d 066d 3dbd 7524 b63a
000001a0: 966f 03bb d82b e137 c8f8 30bd a94d 603b
000001b0: 1437 303c 17a4 533c 3ad6 7539 cb81 1d3e
000001c0: 668b 9a3a edeb 3c3c 7509 d0bc b40c 95bc
000001d0: 0835 df3a 6996 593d 8a43 fb3b 9e80 58bb
000001e0: 0d94 e5bb e9c9 1d3e f82a 5a3e 11e5 383c
000001f0: cf86 a43b c6d2 773b db82 14b9 0d02 953a

2.bias f4 [128]
-0.0008221598 -0.030733 0.0023309775 0.004410259 0.010467713 -0.011827446 -0.0022305981 -0.0028924637
0.07804797 0.011373064 -0.16861422 -0.17179798 0.00036208463 -0.0039521996 -0.00200598 -0.008705822
0.0018981451 0.007691283 -0.0055931895 0.0035733504 -0.18906812 -0.0041124634 0.0040301783 -0.13808917
0.0021054877 -0.0136328265 0.019160943 0.0016466362 -0.012323675 -0.0032804525 0.057723127 -0.12309417
0.003490525 0.0028325983 -0.15874566 -0.00020430473 0.023540027 0.0003061751 0.030870428 -0.0018874715
-0.018450912 -0.15053985 0.006825665 -0.04142142 0.013331402 -0.15145545 0.0037324266 0.0015099497
0.0011047664 -0.011255921 -0.0026061453 -0.0001370103 -0.0074709477 -0.03995673 0.011890734 0.008093947
0.01966912 0.010407347 0.0026090255 0.071443886 0.014867338 0.0021273412 -0.13019201 -0.1118768
0.012244674 -0.00012419313 -0.0012669488 -0.14377996 -0.06711387 0.015349922 0.008211243 0.011166532
-0.09754491 0.019022392 -0.0019353206 -0.11351666 -0.14866602 0.0037006217 -0.027533395 -0.025413841
-0.024861988 -0.00032467552 0.0007667432 0.0057788384 -0.043457117 -0.0035474012 0.034434773 -0.00829502
0.017378164 0.0067200013 0.015336001 6.103938e-05 -0.0007915035 0.003179665 -0.0029219466 -0.006755091
-0.00321141 -0.0003705286 -0.0318452 0.013322212 -0.13966076 -0.0062606493 0.006586895 -0.00422077
0.016014457 -0.0030235704 -0.011424386 0.006481769 0.0052362205 0.0064124116 -0.0002076937 -0.16313908
0.0036161158 0.0033922489 0.023140164 0.021123553 -0.046585537 0.0090778135 0.010140953 0.004427033
-0.0072348528 -0.1273228 -0.10999711 -0.00014001163 0.03892745 -0.018122315 0.00244758 -0.0068776133
00000000: 3686 57ba c6c3 fbbc 50c3 183b ef83 903b
00000010: c580 2b3c e7c7 41bc 3a2f 12bb 7d8f 3dbb
00000020: 9dd7 9f3d 1656 3a3c 35a9 2cbe cfeb 2fbe
00000030: 2dd6 bd39 7481 81bb c276 03bb dda2 0ebc
00000040: 2ecb f83a 2807 fc3b 1347 b7bb df2e 6a3b
00000050: 139b 41be d8c1 86bb 960f 843b 3f67 0dbe
00000060: 39fc 093b 385c 5fbc 69f7 9c3c f1d3 d73a
00000070: 3de9 49bc dcfc 56bb 166f 6c3d cc18 fcbd
00000080: 4bc1 643b 1da3 393b 398e 22be a23a 56b9
00000090: 04d7 c03c 2086 a039 fbe3 fc3c 0965 f7ba
000000a0: 5e26 97bc 1e27 1abe d4a9 df3b 82a9 29bd
000000b0: f46b 5a3c 2317 1bbe ba9b 743b 81e9 c53a
000000c0: cfcd 903a c16a 38bc ddcb 2abb 6caa 0fb9
000000d0: dace f4bb aba9 23bd 5ad1 423c 799c 043c
000000e0: 2221 a13c 9483 2a3c 2ffc 2a3b 2c51 923d
000000f0: 2396 733c dd6a 0b3b 0e51 05be aa1f e5bd
00000100: e39d 483c d739 02b9 bf0f a6ba 0e3b 13be
00000110: ff72 89bd 3d7e 7b3c 7388 063c d4f3 363c
00000120: a0c5 c7bd d9d4 9b3c 95aa fdba 6c7b e8bd
00000130: e83b 18be 2186 723b b78d e1bc b030 d0bc
00000140: 5eab cbbc 3639 aab9 44ff 483a 695c bd3b
00000150: 1700 32bd 847b 68bb 7a0b 0d3d d6e7 07bc
00000160: a75c 8e3c 7533 dc3b da43 7b3c 4502 8038
00000170: e77c 4fba ed61 503b 217e 3fbb cf59 ddbb
00000180: 8576 52bb 8243 c2b9 1d70 02bd 6845 5a3c
00000190: 3b03 0fbe 2226 cdbb e1d6 d73b 634e 8abb
000001a0: c030 833c 1827 46bb 592d 3bbc 0565 d43b
000001b0: 9a94 ab3b 351f d23b 5ac8 59b9 ee0d 27be
000001c0: 5bfc 6c3b 7e50 5e3b 7190 bd3c 4d0b ad3c
000001d0: 7ad0 3ebd 1cbb 143c 3d26 263c a510 913b
000001e0: 5812 edbb e860 02be 2a46 e1bd 16d0 12b9
000001f0: 6472 1f3d 4075 94bc 9467 203b 9a5d e1bb

2.running_mean f4 [128]
0.002413736 0.097380914 0.0029723218 0.043013178 0.023225803 0.035228185 0.008601064 0.050505042
0.055233732 0.06610854 0.020531991 0.024567088 0.00045719827 0.014041441 0.018307513 0.049406715
0.021560134 0.051160302 0.09359064 0.010642035 0.025702467 0.04514762 0.029611254 0.018227078
0.011362683 0.05658082 0.062190793 0.007572189 0.026158731 0.026562 0.09712441 0.040909547
0.017806219 0.016401991 0.07750334 0.07051063 0.13479368 0.010805175 0.12898557 0.008820123
0.08221048 0.0262475 0.014011721 0.057401918 0.03506619 0.0750667 0.0405414 0.012888121
0.047061224 0.01165805 0.009829367 0.02387548 0.06284827 0.1063641 0.10239417 0.043463387
0.07559655 0.036967997 0.084605046 0.105056815 0.0787842 0.0068706335 0.042093188 0.10230284
0.038937762 0.0015663264 0.010719036 0.021348309 0.060798585 0.04273137 0.04832922 0.064840294
0.11837642 0.063148975 0.00703298 0.006993722 0.01982962 0.016443033 0.08593351 0.049183387
0.05385303 0.0026310198 0.0002392125 0.012192245 0.075278364 0.02056855 0.043374952 0.013091889
0.055085737 0.017273419 0.07171492 0.013585031 0.008956093 0.021427263 0.032047056 0.064159885
0.037021752 0.00961965 0.037073344 0.02527227 0.02062352 0.06063945 0.061214898 0.011064928
0.07686146 8.865365e-06 0.10177763 0.019150121 0.025192132 0.022845026 0.00085946545 0.10751781
0.004953589 0.028670456 0.05687469 0.049957022 0.058127 0.042191785 0.018645938 0.017895754
0.014626914 0.135638 0.035306018 0.06073447 0.05417958 0.021883158 0.0033127123 0.016246676
00000000: c52f 1e3b a56f c73d 49cb 423b 962e 303d
00000010: 0a44 be3c 6e4b 103d 7aeb 0c3c 60de 4e3d
00000020: c43c 623d ea63 873d b532 a83c eb40 c93c
00000030: 1db4 ef39 120e 663c a3f9 953c b25e 4a3d
00000040: e19e b03c 778d 513d 73ac bf3d ee5b 2e3c
00000050: fb8d d23c b6ec 383d 4d93 f23c f450 953c
00000060: 8c2a 3a3c 4ac1 673d c6bb 7e3d 2020 f83b
00000070: d64a d63c 8d98 d93c 2ae9 c63d c590 273d
00000080: 59de 913c 785d 863c 12ba 9e3d e167 903d
00000090: 5b07 0a3e 3008 313c cb14 043e 4782 103c
000000a0: f85d a83d ff04 d73c 6b91 653c 461e 6b3d
000000b0: 91a1 0f3d 92bc 993d bd0e 263d b328 533c
000000c0: 45c3 403d 6801 3f3c 5a0b 213c 8396 c33c
000000d0: 98b6 803d 6cd5 d93d 09b4 d13d aa06 323d
000000e0: 5dd2 9a3d c16b 173d 6945 ad3d 0728 d73d
000000f0: 9c59 a13d 0d23 e13b e869 2c3d 2784 d13d
00000100: 347d 1f3d 314d cd3a e59e 2f3c a6e2 ae3c
00000110: f007 793d 1707 2f3d dcf4 453d fdca 843d
00000120: 566f f23d 4054 813d ea74 e63b 982b e53b
00000130: ba71 a23c 8ab3 863c e8fd af3d 8574 493d
00000140: ff94 5c3d 306d 2c3b 1ed5 7a39 fbc1 473c
00000150: 8b2b 9a3d 607f a83c efa9 313d 5d7f 563c
00000160: 95a1 613d fc80 8d3c 46df 923d c093 5e3c
00000170: 94bc 123c 3a88 af3c c643 033d 4266 833d
00000180: 1fa4 173d bd9b 1d3c 38da 173d cb07 cf3c
00000190: a8f2 a83c 1261 783d 79bc 7a3d ac49 353c
000001a0: 8b69 9d3d 74bc 1437 ca70 d03d b7e0 9c3c
000001b0: bb5f ce3c 7e25 bb3c c04d 613a 4c32 dc3d
000001c0: b751 a23b 4ede ea3c 6ff5 683d bc9f 4c3d
000001d0: 9416 6e3d 4bd1 2c3d 5ebf 983c 1e9a 923c
000001e0: b9a5 6f3c b0e4 0a3e 0b9d 103d b5c4 783d
000001f0: 68eb 5d3d 4f44 b33c 171a 593b c017 853c

2.running_var f4 [128]
4.6045993e-06 0.039360408 1.6012742e-05 0.013470212 0.00092795613 0.007388674 0.0005455439 0.012861113
0.018680368 0.026260512 0.002057813 0.0021240814 1.7934725e-07 0.00086113246 0.00090142275 0.022972649
0.0014116681 0.00359066 0.011591668 0.0008988906 0.0025658149 0.007640933 0.009196844 0.0037876854
0.001080975 0.0045035947 0.010962079 0.0001817822 0.0044207736 0.0044980156 0.01586172 0.007036165
0.0012094855 0.0026789922 0.01992837 0.030605407 0.08279331 0.0003093678 0.013612433 7.960016e-05
0.013605685 0.002583152 0.0015335341 0.01959441 0.0025330817 0.019434873 0.008053913 0.0011979088
0.005304337 0.00063365133 0.0002480897 0.002079784 0.01366272 0.031861354 0.03731932 0.0027664353
0.017218865 0.0072638555 0.03982159 0.020126786 0.03827176 8.821006e-05 0.0063761845 0.03237377
0.0016563155 1.613681e-05 7.930711e-05 0.0018081118 0.008177247 0.010525719 0.0087310495 0.0036135705
0.035461534 0.02930755 4.7491103e-05 0.0006501891 0.0018072313 0.00031685017 0.035611447 0.009666734
0.0035616297 4.3189984e-06 1.6459192e-07 0.00017850324 0.04741341 0.00043487857 0.01216587 0.0005732098
0.007861604 0.0034149736 0.043829013 0.0005379647 0.00039636504 0.0014160167 0.0007544061 0.023472965
0.009358045 0.00039815772 0.01026817 0.0071274387 0.002097109 0.029948318 0.0140818395 0.00047870798
0.0046509644 7.14305e-09 0.07795121 0.00078502536 0.005039316 0.0012448449 1.2107248e-06 0.033760887
3.6400488e-05 0.009669075 0.029107295 0.016303113 0.003945881 0.008096591 0.0009967987 0.00044477993
0.0007260687 0.04886955 0.007611067 0.015256452 0.022792947 0.0016487861 4.635359e-05 0.0005457395
00000000: 3581 9a36 6138 213d 1a53 8637 2ab2 5c3c
00000010: 1542 733a b11c f23b d502 0f3a 6bb7 523c
00000020: 9207 993c 4920 d73c 60dc 063b 2c34 0b3b
00000030: 9992 4034 9fbd 613a 754d 6c3a 2331 bc3c
00000040: b907 b93a 4751 6b3b fbea 3d3c 87a3 6b3a
00000050: 3b27 283b cb60 fa3b 5cae 163c d13a 783b
00000060: 81af 8d3a e492 933b 4b9a 333c ca9c 3e39
00000070: 23dc 903b 1764 933b 70f0 813c a18f e63b
00000080: 9987 9e3a 0892 2f3b d240 a33c 31b8 fa3c
00000090: 8a8f a93d a532 a239 af06 5f3c 03ef a638
000000a0: 61ea 5e3c 194a 293b de00 c93a 7584 a03c
000000b0: 0f02 263b e235 9f3c 8ff4 033c 2603 9d3a
000000c0: 01d0 ad3b 9f1b 263a 0912 8239 fc4c 083b
000000d0: 9ad9 5f3c 0d81 023d 25dc 183d 154d 353b
000000e0: 940e 8d3c a305 ee3b f71b 233d eee0 a43c
000000f0: d9c2 1c3d 6afd b838 50ef d03b 5c9a 043d
00000100: ba18 d93a 895d 8737 ae51 a638 2afe ec3a
00000110: dcf9 053c 1174 2c3c ad0c 0f3c a7d1 6c3b
00000120: 1d40 113d 6316 f03c 2f31 4738 7471 2a3a
00000130: 9fe0 ec3a e91e a639 4fdd 113d 3961 1e3c
00000140: 3b6a 693b eaeb 9036 afba 3034 992c 3b39
00000150: 9034 423d 6a00 e439 5b53 473c 7543 163a
00000160: f5cd 003c c0cd 5f3b 0d86 333d 3306 0d3a
00000170: 37cf cf39 a399 b93a 56c3 453a 604a c03c
00000180: 7c52 193c d3bf d039 d43b 283c 4a8d e93b
00000190: a76f 093b 2d56 f53c 84b7 663c 19fb fa39
000001a0: 1e67 983b ef6e f531 e2a4 9f3d 29ca 4d3a
000001b0: d920 a53b 102a a33a 3080 a235 db48 0a3d
000001c0: baac 1838 0a6b 1e3c 6c72 ee3c 1b8e 853c
000001d0: 734c 813b 90a7 043c 04a7 823a 5a31 e939
000001e0: a555 3e3a 702b 483d 4266 f93b 33f6 793c
000001f0: 46b8 ba3c 151c d83a ca6b 4238 f50f 0f3a

4.weight f4 [64, 128]
0.00013840648 -0.04810274 -0.0018966619 0.00035582838 0.0065532923 -0.0019269239 0.0017952874 -0.0028083364
-0.014165392 -0.029004695 0.025746224 0.0077260053 -0.0002811467 0.0011492949 -0.0028957138 0.027312908
-0.0106326295 -0.01677546 -0.02045787 -0.0024223824 -0.004532404 -0.00026313157 -0.010942984 -0.010779872
0.0030146465 0.00293105 0.005642221 -0.0034746283 0.007989743 0.007292585 -0.06823383 0.0525377
-0.0032258842 0.0029675344 0.02076734 0.019396491 0.050692383 -0.0022120064 -0.0616108 0.0005689365
0.02597153 0.044201035 -0.0032022651 0.022293903 -0.010473792 -0.04028458 -0.014411593 -0.0014948916
0.012272216 0.015600979 -0.0017232454 0.008913101 -0.015436393 0.00020513557 0.022397105 -0.0017448604
-0.016445372 -0.0014922719 -0.028602527 -0.05805807 -0.05483635 -0.0027319547 0.027319187 0.047816247
-0.007186014 -0.0005593627 -0.0011524608 0.054563105 -0.0034272242 -0.0050737928 -0.008687949 -0.013769965
-0.01337719 -0.031912353 -2.5012614e-05 0.0054124976 0.02937861 -0.00016859299 -0.00059443235 -0.0002340461
-0.003197747 -0.0008129471 0.00026855295 -0.0049527483 -0.0040685087 0.0049894624 0.018311543 0.0013943865
0.002840149 0.0019443196 0.013405758 -0.012543455 0.00072366104 -0.0039746226 -2.021669e-05 0.0402202
0.0034888096 -0.0005403353 -0.011987352 -0.0005916479 0.01141139 -0.0069536036 0.023656499 -0.00082087057
-0.00915546 -0.00081675354 -0.04419634 -0.0033884407 0.014605912 0.004792409 -0.0003951485 0.021225838
0.0027782079 -0.0033030154 -0.02230931 -0.011183677 0.020241793 -0.0056391805 0.00078246323 -0.0068944767
-0.0015412484 -0.00840851 0.047084436 -0.04171595 -0.01747354 -0.00012402376 -0.0028365932 0.0036548954
0.0005854981 -0.036767557 -0.0007915678 -0.009641342 0.014147414 0.023642784 0.003619753 0.0054201134
-0.004825059 -0.01516757 0.054612238 0.040086567 -0.00016552118 0.013070982 -0.0035274033 -0.0033793282
0.0043214587 0.005622032 0.0042149792 -0.003688355 0.068362795 0.0017242717 -0.0019882882 0.05200018
0.005045086 0.010812654 0.018075036 0.0012329062 -0.00993159 0.008414286 -0.020750063 0.055416636
0.004642214 0.005527365 0.03376608 0.01514746 0.04041669 -0.00976551 -0.052162185 -0.00041627692
0.028235028 0.029520938 -0.016585475 -0.012236542 -0.018920073 0.08757457 -0.019160975 0.004707044
-0.0041109324 0.0011653162 -0.005864306 -0.001204122 -0.003325419 0.026130106 -0.0039553875 -0.012032213
-0.012061081 -0.010880392 -0.027112352 -0.01702494 -0.02870013 -0.0046396498 0.02405819 0.09518204
0.006208756 -0.0029477926 -0.0004052648 0.058775198 0.040267993 -0.0012972181 0.0119912885 -0.008247686
0.04529427 -0.097355574 -0.00241266 0.03571953 0.04323802 -0.0038832766 -0.022017945 -0.014576835
-0.0012964907 -0.0005003338 -0.0002694829 -0.0025282619 -0.016373811 0.0074499883 0.0034373894 0.0034791473
-0.0047154864 0.00757896 -0.011020001 0.00081159174 -0.00096738565 -0.0044768234 0.0068162084 0.02053841
-0.0032327783 0.0062637953 -0.027751945 -0.0073626232 0.07221054 -0.016396524 -0.013318114 0.0018584818
-0.0027081496 0.0015210086 0.059589937 -1.229797e-05 0.009102845 -0.004543749 -0.0005692434 0.07094041
0.0015133264 -0.0065294895 0.029914891 -0.021203522 0.039429422 0.005711246 0.0026991349 -0.0025203677
0.0024169195 0.03651616 0.064424105 -0.021048637 -0.021211376 0.003872553 0.004743097 0.005843756
00000000: 3521 1139 6107 45bd 6a99 f8ba 7a8e ba39
00000010: 00bd d63b d690 fcba d94f eb3a 110c 38bb
00000020: f615 68bc 419b edbc bfe9 d23c 6e2a fd3b
00000030: df66 93b9 f0a3 963a 04c6 3dbb 52bf df3c
00000040: 7b34 2ebc b16c 89bc 4397 a7bc d5c0 1ebb
00000050: 8f84 94bb ecf4 89b9 344a 33bc 0f9e 30bc
00000060: 6091 453b dc16 403b 61e2 b83b 97b6 63bb
00000070: 69e7 023c a3f6 ee3b 2ebe 8bbd c531 573d
00000080: 5b69 53bb f77a 423b 4520 aa3c 64e5 9e3c
00000090: d1a2 4f3d 4ff7 10bb 9b5b 7cbd af24 153a
000000a0: 3fc2 d43c 250c 353d 18dd 51bb b4a1 b63c
000000b0: 459a 2bbc 7201 25bd 9a1e 6cbc 3df0 c3ba
000000c0: 6811 493c 409b 7f3c 85de e1ba 4108 123c
000000d0: ede8 7cbc a919 5739 227a b73c cdb3 e4ba
000000e0: 72b8 86bc 5698 c3ba d94f eabc 4cce 6dbd
000000f0: 159c 60bd 980a 33bb 7dcc df3c f8da 433d
00000100: a878 ebbb 32a2 12ba 2b0e 97ba 907d 5f3d
00000110: 489b 60bb 0f42 a6bb e657 0ebc 6b9b 61bc
00000120: 002c 5bbc 87b6 02bd 2ed2 d1b7 525b b13b
00000130: 69ab f03c 56c8 30b9 aed3 1bba 466a 75b9
00000140: 4b91 51bb f51b 55ba 91cc 8c39 aa4a a2bb
00000150: 2051 85bb a57e a33b 1702 963c d9c3 b63a
00000160: cb21 3a3b 8ad8 fe3a d3a3 5b3c 1083 4dbc
00000170: 12b4 3d3a 8d3d 82bb 0397 a9b7 f0bd 243d
00000180: 83a4 643b 4aa5 0dba 9966 44bc d218 1bba
00000190: d7f6 3a3c 0edb e3bb 46cb c13c b12f 57ba
000001a0: c800 16bc 671b 56ba 3907 35bd 9a10 5ebb
000001b0: a34d 6f3c a409 9d3b ef2b cfb9 cfe1 ad3c
000001c0: 9812 363b 6777 58bb 04c2 b6bc be3b 37bc
000001d0: 1ed2 a53c e0c8 b8bb 381e 4d3a 10eb e1bb
000001e0: b703 caba d9c3 09bc 9cdb 403d 58de 2abd
000001f0: ab24 8fbc 600c 02b9 23e6 39bb f886 6f3b
00000200: 1d7c 193a 9499 16bd 3781 4fba b8f6 1dbc
00000210: 8eca 673c 83ae c13c 6139 6d3b 359b b13b
00000220: 871b 9ebb 6681 78bc 15b1 5f3d d031 243d
00000230: c18f 2db9 ac27 563c 022c 67bb b877 5dbb
00000240: 069b 8d3b 0639 b83b cf1d 8a3b 54b8 71bb
00000250: cb01 8c3d f500 e23a f14d 02bb 24fe 543d
00000260: 4051 a53b 8f27 313c 1912 943c 7899 a13a
00000270: 1cb8 22bc 13dc 093c 09fc a9bc 8efc 623d
00000280: b71d 983b e61e b53b 4d4e 0a3d 0d2d 783c
00000290: f98b 253d 85ff 1fbc 04a8 55bd be3f dab9
000002a0: 254d e73c e5d5 f13c 43de 87bc c77b 48bc
000002b0: 45fe 9abc 4c5a b33d 7af7 9cbc 8c3d 9a3b
000002c0: 00b5 86bb 86bd 983a 5d29 c0bb a1d3 9dba
000002d0: 46ef 59bb ce0e d63c 329c 81bb c222 45bc
000002e0: d79b 45bc ac43 32bc b91a debc e377 8bbc
000002f0: 891c ebbc 3408 98bb ae15 c53c cdee c23d
00000300: d272 cb3b c12f 41bb b879 d4b9 43be 703d
00000310: 0df0 243d 6b07 aaba 1c77 443c 4d21 07bc
00000320: 7c86 393d 5c62 c7bd b81d 1ebb a44e 123d
00000330: 5a1a 313d 927e 7ebb fa5e b4bc add3 6ebc
00000340: 02ef a9ba d528 03ba 6249 8db9 32b1 25bb
00000350: 5f22 86bc 081f f43b d345 613b 6802 643b
00000360: 5e84 9abb ed58 f83b 3c8d 34bc 00c1 543a
00000370: 2798 7dba 51b2 92bb 805a df3b 2b40 a83c
00000380: 05dd 53bb 8640 cd3b 0c58 e3bc 2942 f1bb
00000390: 1fe3 933d 0152 86bc 3834 5abc 4d98 f33a
000003a0: 367b 31bb 945c c73a 9414 743d 6153 4eb7
000003b0: 1924 153c bbe3 94bb 4739 15ba 3549 913d
000003c0: cf5a c63a 54f5 d5bb 1310 f53c 02b3 adbc
000003d0: bf80 213d 6725 bb3b f8e3 303b c12c 25bb
000003e0: 2e65 1e3b f891 153d c9f0 833d 316e acbc
000003f0: 7bc3 adbc a8ca 7d3b fb6b 9b3b fa7c bf3b

4.bias f4 [64]
0.02236461 0.077096805 0.07149774 0.043266185 -7.311165e-18 0.014151424 0.060031127 -9.0496036e-07
0.06568338 -0.011791861 0.038707156 0.07827261 0.0891307 -0.0016769218 -1.8512355e-07 -0.033521555
0.0072288876 0.08683968 -0.0071210605 0.08138531 0.016953496 0.0674669 0.07018856 -0.06926098
-1.520125e-07 -0.0026319332 -4.3823893e-06 0.09893266 0.055655535 -1.6705565e-07 0.027591964 0.023677167
-5.5827773e-21 0.025532912 0.08086132 -6.8242325e-06 0.031715944 -0.08137321 0.060018387 0.04137162
0.0763864 0.047113843 -0.006241895 -2.0146534e-10 0.071300805 0.060754847 0.029941903 0.038008712
0.07522806 0.048110887 0.036817018 0.02077824 0.09377419 0.013568371 -0.003971984 0.011747612
0.0015189382 7.3180756e-10 -1.4806135e-13 0.048789345 0.044315804 0.068457045 -1.9372333e-09 -0.022549465
00000000: fd35 b73c eee4 9d3d 686d 923d e237 313d
00000010: 00de 06a3 60db 673c 33e3 753d 67ec 72b5
00000020: 0285 863d a632 41bc 658b 1e3d 644d a03d
00000030: 288a b63d 29cc dbba 60c6 46b4 e64d 09bd
00000040: 4ee0 ec3b 01d9 b13d c957 e9bb 57ad a63d
00000050: 0fe2 8a3c 162c 8a3d 05bf 8f3d b3d8 8dbd
00000060: e138 23b4 837c 2cbb 700c 93b6 359d ca3d
00000070: 0ff7 633d e85f 33b4 8b08 e23c 9ef6 c13c
00000080: 4fe9 d29d 662a d13c 9f9a a53d b6fb e4b6
00000090: 94e8 013d ffa6 a6bd d7d5 753d 4a75 293d
000000a0: 7970 9c3d 72fa 403d cf88 ccbb 7483 5daf
000000b0: 2806 923d 13da 783d b948 f53c 06af 1b3d
000000c0: 2b11 9a3d ec0f 453d 71cd 163d 2137 aa3c
000000d0: af0c c03d df4d 5e3c 6b27 82bb 0e79 403c
000000e0: 1c17 c73a 6128 4930 c7b3 26aa 56d7 473d
000000f0: 7d84 353d 3533 8c3d 2b20 05b1 a8b9 b8bc

6.weight f4 [64]
-0.07196183 0.17858095 0.19725609 0.091104 1.5770278e-08 0.10056251 0.19012727 0.00014821357
0.16473752 0.0012514208 0.11858933 0.18304531 0.21215913 0.00074375595 -0.00013123822 0.0005551877
0.0019353754 0.20765653 0.10807629 0.15137435 -0.004319879 0.1491657 0.1602149 0.049616333
-2.569015e-08 0.0035855402 -8.815605e-05 0.22021237 0.14396727 -5.978105e-05 0.1260208 0.12293081
1.4735357e-10 0.117709495 0.19239923 1.5297617e-06 0.077595666 0.08842876 0.15097314 0.13004485
0.19724993 0.13851696 0.07362317 -1.0268753e-05 0.15517884 0.17059954 0.15506493 0.13680176
0.1971523 0.08507929 0.16123553 0.088719994 0.18153337 0.0038503143 -0.011990666 0.0048487536
0.0037164413 3.5647506e-11 5.352143e-06 0.19610853 0.15049683 0.13411365 -1.3303266e-05 0.005605685
00000000: b960 93bd eddd 363e 80fd 493e bc94 ba3d
00000010: 3577 8732 b8f3 cd3d b9b0 423e c769 1b39
00000020: f4b0 283e b706 a43a f6de f23d 3b70 3b3e
00000030: 3e40 593e 9ef8 423a fe9c 09b9 048a 113a
00000040: 6cac fd3a eaa3 543e 1a57 dd3d e101 1b3e
00000050: c68d 8dbb e5be 183e 600f 243e 7f3a 4b3d
00000060: 3dad dcb2 62fb 6a3b 6be0 b8b8 5a7f 613e
00000070: 286c 133e 6abd 7ab8 990b 013e 26c3 fb3d
00000080: 5804 222f ad11 f13d 4e04 453e 3652 cd35
00000090: 7aea 9e3d 231a b53d b498 1a3e 7a2a 053e
000000a0: e3fb 493e 64d7 0d3e bfc7 963d f547 2cb7
000000b0: 34e7 1e3e a5b1 2e3e 57c9 1e3e c315 0c3e
000000c0: 4be2 493e 0d3e ae3d ed1a 253e d4b2 b53d
000000d0: e2e3 393e 8e55 7c3b 8074 44bc 4be2 9e3b
000000e0: 8a8f 733b 86c7 1c2e 8f96 b336 add0 483e
000000f0: d71b 1a3e 1755 093e 1831 5fb7 e5af b73b

6.bias f4 [64]
-0.024486342 0.09340149 0.08816787 0.03748662 -0.004002063 0.004075108 0.088160194 -0.0011047478
0.06902575 0.0005153455 0.011377259 0.080271274 0.10229948 -0.004058545 -0.008165599 -0.008768731
-0.0007118451 0.0978599 0.020717954 0.07598851 -0.007359455 0.068559594 0.066314906 0.017536037
-0.008590014 0.0023221327 -0.0025534616 0.11500998 0.036270507 -0.013373589 0.042353563 0.035492755
0.0080578495 0.016403113 0.09276835 0.013985739 0.027998593 0.0139909815 0.06834356 0.049893938
0.10112456 0.046485644 -0.016654419 -3.9444818e-05 0.068683125 0.081369236 0.055058677 0.0076143327
0.08962115 0.039062753 0.056125604 0.04263476 0.08896773 0.0042077657 -0.0017530039 0.005007302
0.0041565765 0.0010327979 -0.0065847165 0.10581635 0.06142609 0.071601726 0.00393243 0.0020135883
00000000: 9597 c8bc 4849 bf3d 5b91 b43d 928b 193d
00000010: bd23 83bb 7c88 853b 558d b43d 2fcd 90ba
00000020: 5f5d 8d3d 4018 073a af67 3a3c 4465 a43d
00000030: 6482 d13d 8bfd 84bb 01c9 05bc b9aa 0fbc
00000040: 1e9b 3aba c56a c83d b3b8 a93c dd9f 9b3d
00000050: 9527 f1bb f968 8c3d 1cd0 873d bca7 8f3c
00000060: 21bd 0cbc ec2e 183b fa57 27bb 5a8a eb3d
00000070: 6290 143d e61c 5bbc ee7a 2d3d da60 113d
00000080: 1205 043c d25f 863c 55fd bd3d 7124 653c
00000090: 4e5d e53c 6e3a 653c b5f7 8b3d 965d 4c3d
000000a0: 651a cf3d bb67 3e3d d96e 88bc 8d71 25b8
000000b0: bda9 8c3d eaa4 a63d 3585 613d a781 f93b
000000c0: 4b8b b73d 4400 203d f6e3 653d c9a1 2e3d
000000d0: b734 b63d 4ce1 893b 0dc5 e5ba 4b14 a43b
000000e0: e433 883b f25e 873a 9bc4 d7bb 3eb6 d83d
000000f0: ec99 7b3d eda3 923d 9ddb 803b 68f6 033b

6.running_mean f4 [64]
0.023789361 0.049299154 0.065937616 0.0342402 6e-45 0.026728833 0.0481939 6e-45
0.052959103 0.00061046507 0.109305985 0.060376212 0.064337745 9.162221e-30 6e-45 0.0042240713
0.015109654 0.06848284 0.015276612 0.0612804 0.0375695 0.052465733 0.04786439 0.0048604216
2.9524488e-10 2.835511e-25 6e-45 0.06127816 0.072801545 6e-45 0.035995293 0.03523083
6e-45 0.03095515 0.06146103 9.310815e-08 0.083356835 0.008873474 0.048235074 0.042556323
0.058073986 0.04313958 0.053437885 6e-45 0.057899136 0.04931717 0.044895925 0.104143076
0.06478607 0.04180785 0.046399616 0.03440271 0.06118463 0.02318695 0.0027366984 0.009554758
0.011508906 2.8283453e-10 6e-45 0.038122322 0.04209626 0.05293023 6e-45 5.0993336e-17
00000000: e8e1 c23c e9ed 493d 4d0a 873d 743f 0c3d
00000010: 0400 0000 6df6 da3c f866 453d 0400 0000
00000020: a5eb 583d 9e07 203a d1db df3d 0c4d 773d
00000030: 82c3 833d f9d4 390f 0400 0000 146a 8a3b
00000040: 7b8e 773c bb40 8c3d c14a 7a3c 2801 7b3d
00000050: 7ae2 193d 4fe6 563d 730d 443d 2c44 9f3b
00000060: 0650 a22f 7782 af16 0400 0000 cffe 7a3d
00000070: fa18 953d 0400 0000 cd6f 133d 344e 103d
00000080: 0400 0000 a895 fd3c 90be 7b3d bff2 c733
00000090: fdb6 aa3d 0c62 113c 2492 453d 8a4f 2e3d
000000a0: fdde 6d3d 21b3 303d afe1 5a3d 0400 0000
000000b0: a527 6d3d cd00 4a3d cae4 373d f748 d53d
000000c0: 8fae 843d b53e 2b3d 860d 3e3d dbe9 0c3d
000000d0: bc9c 7a3d 8ff2 bd3c 2e5a 333b 8f8b 1c3c
000000e0: da8f 3c3c 6c7d 9b2f 0400 0000 2726 1c3d
000000f0: 216d 2c3d 5ecd 583d 0400 0000 4e2a 6b24

6.running_var f4 [64]
0.002561551 0.009794426 0.01707363 0.005123908 6e-45 0.003586628 0.009969799 6e-45
0.011367784 7.967974e-06 0.0058043306 0.0141215585 0.01587179 4.9136263e-33 6e-45 0.00020971383
0.00015836985 0.01772249 0.0019724253 0.014397416 0.00064488745 0.0112179695 0.009406279 0.00036816832
2.0549962e-17 2.8040498e-27 6e-45 0.014055694 0.0052601136 6e-45 0.0059113554 0.0061727655
6e-45 0.0017371385 0.015714059 1.306943e-13 0.0037827617 0.00067358767 0.009751682 0.00762505
0.013300477 0.0082843285 0.0030014196 6e-45 0.01326368 0.010329281 0.0089928 0.0066108266
0.016664574 0.0068963617 0.010142831 0.005270315 0.014775602 0.00015231654 4.6840367e-05 0.0003657859
7.25884e-05 1.2274421e-19 6e-45 0.0065024616 0.007863572 0.011273074 6e-45 4.517213e-20
00000000: b2df 273b cd78 203c ffdd 8b3c 75e6 a73b
00000010: 0400 0000 a20d 6b3b 5e58 233c 0400 0000
00000020: f13f 3a3c 30ae 0537 4132 be3b 1c5e 673c
00000030: 8e05 823c a31a cc09 0400 0000 a1e6 5b39
00000040: 1510 2639 c12e 913c ce43 013b 24e3 6b3c
00000050: aa0d 293a 93cb 373c cb1c 1a3c b706 c139
00000060: 3a8a bd23 e328 5e13 0400 0000 db49 663c
00000070: 085d ac3b 0400 0000 0bb4 c13b e944 ca3b
00000080: 0400 0000 b2b0 e33a c5ba 803c 1126 132a
00000090: 36e8 773b b493 303a 85c5 1f3c 8edb f93b
000000a0: 3eea 593c feba 073c 77b3 443b 0400 0000
000000b0: e84f 593c 253c 293c 8956 133c a29f d83b
000000c0: 2584 883c e0fa e13b 1e2e 263c 9bb2 ac3b
000000d0: 5e15 723c 29b7 1f39 7676 4438 f4c6 bf39
000000e0: 9a3a 9838 29e9 1020 0400 0000 9a12 d53b
000000f0: 36d6 003c b3b2 383c 0400 0000 c151 551f

8.weight f4 [32, 64]
-0.03359856 0.009506191 0.014431837 0.037185133 0.0040186183 0.01813931 0.0019684753 0.0018905146
0.0067180665 0.0023444307 -0.04617006 0.02749103 0.018878952 0.00042951366 0.002909868 -0.008939613
-0.0029885503 -0.003797094 -0.042613138 0.014390309 -0.0015164432 -0.0008641217 -0.0061096423 -0.0047681476
-0.0021777907 0.0006032771 0.0014234022 0.032104954 -0.051095568 -0.0042956606 0.024281105 0.018826297
-0.0008346394 -0.012551122 0.028050983 -0.006987314 -0.018181683 -0.035923883 -0.0030037663 0.00061807275
-0.03446426 -0.0050316676 -0.018961644 -0.0034920082 0.0070119477 0.014340579 0.048280913 -0.048367467
0.028081274 -0.0055460543 0.015458017 0.02527802 -0.016968073 -0.0015568 0.0021792827 0.004918044
0.0041993484 0.00020430649 -0.0033971677 0.017230785 0.010560767 -0.0142995985 -0.0031733476 0.0011387723
-0.0061290013 -0.051387306 -0.07709321 -0.027579682 0.010117385 0.0016191324 -0.038364597 -0.0063829985
-0.05570247 -0.000603797 0.00036398257 -0.056204654 -0.0743293 0.020607723 0.014006377 0.0065826788
-0.01127004 -0.09934145 0.08016582 -0.030377172 0.016659623 -0.078498855 -0.046249256 0.0007223891
0.008173294 -0.003021539 0.0061358395 -0.11622314 -0.081827134 -0.0016726896 -0.015920768 -0.011956397
-0.0066636987 -0.045937203 -0.074522704 -0.022321051 -0.011579335 0.028259145 -0.057479948 -0.024937328
-0.07596995 -0.0028718705 -0.032939266 -0.014203636 -0.054012123 -0.081275694 -0.0330275 0.016480062
-0.09684332 -0.030698482 -0.045347933 -0.008438449 -0.085504055 -0.009979329 0.008851658 -0.004201445
-0.023617037 0.0025902411 0.0128673315 -0.059395537 -0.06058373 -0.04516204 -0.008490974 0.005693506
0.013669577 -0.11142378 -0.063075475 -0.022875244 -0.0034676802 -0.03710613 -0.09148126 -0.0027310324
-0.06928535 -0.0025888104 0.07306271 -0.0942359 -0.08993474 -0.000633609 -0.004986585 -0.008130356
-0.0020203588 -0.08513737 -0.025936771 -0.059786685 -0.013118497 -0.058796354 -0.07564974 0.03239288
0.0034470165 0.0036668947 -0.000249158 -0.124607675 0.029559532 -0.025987731 -0.040980063 -0.034632895
0.007441479 0.029819325 -0.11526507 0.014029997 0.01287346 0.01345836 -0.028777774 -0.035863884
-0.085290365 -0.04184155 0.024748744 -0.0044065057 -0.061336536 -0.06914452 -0.02459606 0.025028275
-0.07477617 -0.016422 -0.05013926 -0.02286711 -0.09168142 0.011323601 0.00021302208 0.002646911
0.005403151 0.002807173 -0.008468199 -0.10917791 -0.022827713 -0.05719074 0.002225409 0.0076719485
-0.027898792 0.020260924 0.008524759 0.026064914 0.0054621715 0.04041032 0.024276264 0.0032231116
0.022440411 0.0019751755 -0.041239936 -0.0021654116 0.010728047 -0.00050673005 0.0049826503 -0.010485607
-0.0017488447 -0.017105432 -0.008030081 0.0050671925 0.003061858 0.018690832 0.0063981535 -0.011726142
0.0017054726 0.00030885666 0.0010363655 0.025679465 -0.04394478 -0.005955191 0.03775711 0.02435484
-0.0016481407 -0.023494303 0.03833701 -0.009794192 -0.026304403 -0.041014463 0.028445276 0.0026616456
-0.001887494 0.009033865 -0.018140605 -0.0025364454 0.041627735 0.0069197635 0.03777271 -0.05834408
0.022927012 0.008530577 0.02171505 0.012847384 0.043929476 -0.00032865079 0.0019381474 0.008941408
0.0020033931 0.00012087323 -0.0030592424 -0.005284406 -0.005025939 0.03901599 -0.0008117072 0.0009811706
00000000: a59e 09bd dbbf 1b3c 8373 6c3c 704f 183d
00000010: 9dae 833b e498 943c 8901 013b 25cb f73a
00000020: 3a23 dc3b 05a5 193b d11c 3dbd de34 e13c
00000030: 08a8 9a3c 5930 e139 7cb3 3e3b 7477 12bc
00000040: 8edb 43bb abd8 78bb 1d8b 2ebd 55c5 6b3c
00000050: 64c3 c6ba 3a86 62ba 6533 c8bb 1f3e 9cbb
00000060: 44b9 0ebb 3e25 1e3a 7491 ba3a 7c80 033d
00000070: 9649 51bd 9dc2 8cbb 2be9 c63c 9b39 9a3c
00000080: b4cb 5aba 39a3 4dbc 2dcb e53c d7f5 e4bb
00000090: c1f1 94bc ec24 13bd d6da 44bb 2906 223a
000000a0: 652a 0dbd b0e0 a4bb 7355 9bbc 2dda 64bb
000000b0: 7bc4 e53b bff4 6a3c 35c2 453d f71c 46bd
000000c0: b30a e63c adbb b5bb 9f43 7d3c da13 cf3c
000000d0: a100 8bbc 8a0d ccba 4cd2 0e3b 8b27 a13b
000000e0: b09a 893b 1b3b 5639 04a3 5ebb 9327 8d3c
000000f0: 1107 2d3c dd48 6abc f0f7 4fbb dc42 953a
00000100: cad5 c8bb 7f7b 52bd 0be3 9dbd c9ee e1bc
00000110: 63c3 253c 1139 d43a 3224 1dbd 7928 d1bb
00000120: 4628 64bd 2148 1eba ead4 be39 da36 66bd
00000130: f639 98bd 87d1 a83c 017b 653c 83b3 d73b
00000140: f9a5 38bc 8873 cbbd fa2d a43d 8cd9 f8bc
00000150: c379 883c 02c4 a0bd dc6f 3dbd b65e 3d3a
00000160: 48e9 053c 0305 46bb 270f c93b 6606 eebd
00000170: fc94 a7bd 263e dbba 456c 82bc c4e4 43bc
00000180: 285b dabb a628 3cbd 5c9f 98bd a3da b6bc
00000190: 40b7 3dbc b97f e73c 1870 6bbd 5e49 ccbc
000001a0: 2296 9bbd fe35 3cbb 53eb 06bd 5eb6 68bc
000001b0: d13b 5dbd df73 a6bd d847 07bd 3201 873c
000001c0: ca55 c6bd 627b fbbc c1be 39bd 6c41 0abc
000001d0: c01c afbd 5780 23bc 8b06 113c 46ac 89bb
000001e0: 8478 c1bc 09c1 293b 80d1 523c bc48 73bd
000001f0: a526 78bd d5fb 38bd ba1d 0bbc 9790 ba3b
00000200: 5df6 5f3c 2732 e4bd b72d 81bd dd64 bbbc
00000210: 0542 63bb 99fc 17bd 875a bbbd 1ffb 32bb
00000220: 7ae5 8dbd 08a9 29bb e7a1 953d c0fe c0bd
00000230: b42f b8bd c818 26ba 8266 a3bb 2f35 05bc
00000240: ff67 04bb 805c aebd 5a79 d4bc e2e2 74bd
00000250: f7ee 56bc 72d4 70bd 40ee 9abd 66ae 043d
00000260: 57e7 613b 4950 703b 6ca1 82b9 4f32 ffbd
00000270: d526 f23c 39e4 d4bc b6da 27bd 39db 0dbd
00000280: a6d7 f33b a847 f43c 1810 ecbd 13de 653c
00000290: 34eb 523c 7480 5c3c 5ebf ebbc 02e6 12bd
000002a0: b7ac aebd 0c62 2bbd e1bd ca3c 7364 90bb
000002b0: 053c 7bbd a49b 8dbd ad7d c9bc 1908 cd3c
000002c0: 4024 99bd 6e87 86bc d35e 4dbd ce53 bbbc
000002d0: 78c3 bbbd a086 393c ae5e 5f39 cc77 2d3b
000002e0: ea0c b13b 8cf8 373b 33be 0abc ab98 dfbd
000002f0: 2f01 bbbc d640 6abd 2bd8 113b f864 fb3b
00000300: 028c e4bc 3dfa a53c 6eab 0b3c 1686 d53c
00000310: 04fc b23b 4b85 253d 04df c63c d73a 533b
00000320: f4d4 b73c f271 013b 35eb 28bd 94e9 0dbb
00000330: b1c4 2f3c 14d6 04ba 8045 a33b d3cb 2bbc
00000340: 7e39 e5ba b120 8cbc 9a90 03bc b10a a63b
00000350: 74a9 483b 841d 993c 9aa7 d13b 011f 40bc
00000360: 2a8a df3a 0aee a139 a8d6 873a be5d d23c
00000370: 71ff 33bd c323 c3bb 33a7 1a3d cd83 c73c
00000380: 6d06 d8ba 2077 c0bc 4507 1d3d d277 20bc
00000390: 557c d7bc c8fe 27bd 1106 e93c 016f 2e3b
000003a0: ca65 f7ba c702 143c 9b9b 94bc 7e3a 26bb
000003b0: d881 2a3d 2fbf e23b 8fb7 1a3d 34fa 6ebd
000003c0: 6ed1 bb3c d5c3 0b3c c3e3 b13c d67d 523c
000003d0: 65ef 333d c34e acb9 6f09 fe3a fc7e 123c
000003e0: 5c4b 033b 527d fd38 927d 48bb cf28 adbb
000003f0: a2b0 a4bb 3bcf 1f3d c0c8 54ba 9f9a 803a

8.bias f4 [32]
0.049067125 0.016685303 -0.022709318 0.05521752 0.08181447 0.07050151 0.15431893 0.046198085
0.008965557 0.06342696 0.038866997 0.13618942 0.0996209 0.060695983 0.05551952 0.09176611
0.07629774 0.07826294 0.13238643 0.048127484 0.04691837 0.061131217 -3.0200553e-09 -0.0033274607
0.13209191 0.015660003 0.056615107 0.051534105 0.13464132 0.09165644 0.020152375 0.1809653
00000000: 9cfa 483d 9eaf 883c e408 babc c42b 623d
00000010: 588e a73d 1863 903d c805 1e3e 343a 3d3d
00000020: 46e4 123c fee5 813d 0033 1f3d 3d75 0b3e
00000030: 0b06 cc3d 5a9c 783d 7068 633d dfef bb3d
00000040: fd41 9c3d 5248 a03d 4f90 073e 5321 453d
00000050: 7a2d 403d ba64 7a3d 6089 4fb1 8711 5abb
00000060: 1a43 073e 6849 803c 3ee5 673d 6d15 533d
00000070: 6adf 093e 5fb6 bb3d 9816 a53c f84e 393e

10.weight f4 [32]
0.16223063 0.5182733 0.62231696 0.18110757 0.27431127 0.2408685 0.41073182 0.17883542
0.56053394 0.20023946 0.23294482 0.4493203 0.448785 0.2396568 0.45136988 0.4593698
0.28314582 0.23105673 0.41830674 0.4748799 0.19060236 0.4346365 1.849532e-12 0.58695334
0.4487884 0.49938524 0.30362362 0.21946645 0.42335406 0.2624923 0.20725365 0.43206763
00000000: c91f 263e 8fad 043f 2a50 1f3f 4374 393e
00000010: 8772 8c3e 3ba6 763e 714b d23e a220 373e
00000020: 277f 0f3f 930b 4d3e 1689 6e3e 4f0d e63e
00000030: 26c7 e53e 9868 753e f419 e73e 8532 eb3e
00000040: 7df8 903e 239a 6c3e 4d2c d63e 7523 f33e
00000050: 442d 433e ad88 de3e 3526 022c 9342 163f
00000060: 98c7 e53e 6caf ff3e 8e74 9b3e d0bb 603e
00000070: ddc1 d83e 6465 863e 4d3a 543e f837 dd3e

10.bias f4 [32]
-0.068755746 0.38461196 0.32554358 -0.087561004 -0.09429715 -0.09376682 0.3850269 -0.10772377
0.38907787 -0.13188313 -0.06501116 0.34880927 0.41748402 -0.08670781 0.3631055 0.3967467
-0.0800271 -0.11403686 0.39667442 0.42252347 -0.08054061 0.3946822 -5.698261e-12 0.3716674
0.40799803 0.40912855 -0.090535566 -0.119719796 0.38900277 -0.109609336 -0.11621384 0.41034815
00000000: d0cf 8cbd dceb c43e a6ad a63e 2f53 b3bd
00000010: dd1e c1bd d208 c0bd 3f22 c53e 489e dcbd
00000020: 3735 c73e 5f0c 07be 9224 85bd 2197 b23e
00000030: 77c0 d53e dd93 b1bd f7e8 b93e 6222 cb3e
00000040: 40e5 a3bd 288c e9bd e918 cb3e ff54 d83e
00000050: 7af2 a4bd c913 ca3e 5f7d c8ac 304b be3e
00000060: 1ee5 d03e 4c79 d13e b66a b9bd a72f f5bd
00000070: 5f2b c73e dc7a e0bd 8601 eebd 2719 d23e

10.running_mean f4 [32]
0.0684221 0.02145666 0.008895814 0.089412875 0.110436715 0.10016884 0.12221785 0.075921275
0.021411208 0.0921859 0.06491962 0.11299115 0.0802429 0.09741057 0.046650343 0.07509384
0.12295584 0.10152067 0.10763164 0.041671187 0.07939487 0.05469311 6e-45 0.015074646
0.10866642 0.019613197 0.09933494 0.08122152 0.10584851 0.12290801 0.049924552 0.14669552
00000000: e320 8c3d e1c5 af3c c0bf 113c 191e b73d
00000010: a52c e23d 5225 cd3d 5a4d fa3d 9d7c 9b3d
00000020: 8f66 af3c f6cb bc3d 94f4 843d e767 e73d
00000030: 6456 a43d 317f c73d 6e14 3f3d cdca 993d
00000040: 45d0 fb3d 12ea cf3d fa6d dc3d 68af 2a3d
00000050: c799 a23d e205 603d 0400 0000 a6fb 763c
00000060: 808c de3d dbab a03c 1e70 cb3d 7857 a63d
00000070: 1bc7 d83d 32b7 fb3d b07d 4c3d 5a37 163e

10.running_var f4 [32]
0.004084263 0.0003889506 0.00019624134 0.009733453 0.009898757 0.009668473 0.005061556 0.007849536
0.00044640774 0.009554339 0.0069539663 0.0044547645 0.0025844541 0.0119749 0.0008881611 0.0020930273
0.016626414 0.0079184165 0.004126514 0.0009062645 0.009213226 0.0015125202 6e-45 0.00028848526
0.00415127 0.00047653308 0.015039712 0.0089779645 0.0039485027 0.009479959 0.0062528625 0.0063960105
00000000: 48d5 853b 11ec cb39 22c6 4d39 1079 1f3c
00000010: 652e 223c 8468 1e3c 69db a53b 579b 003c
00000020: d50b ea39 cd89 1c3c 19de e33b 46f9 913b
00000030: f25f 293b 5f32 443c 7cd3 683a 2c2b 093b
00000040: 1e34 883c 3fbc 013c b537 873b 6292 6d3a
00000050: 12f3 163c c23f c63a 0400 0000 d63f 9739
00000060: 6007 883b 30d7 f939 2069 763c 5018 133c
00000070: 7162 813b d451 1b3c d0e4 cc3b a095 d13b

12.weight f4 [1, 32]
-0.16890253 0.6337265 0.7012261 -0.19336462 -0.28406703 -0.25404188 0.55588496 -0.19313833
0.6715896 -0.22873066 -0.24137002 0.5815941 0.60790366 -0.2508676 0.6004318 0.61376137
-0.2960799 -0.24351801 0.567055 0.62566835 -0.19985442 0.58723086 -3.746492e-12 0.6878839
0.6080508 0.64351803 -0.31739715 -0.23532768 0.5565112 -0.27972177 -0.22280224 0.57966816
00000000: c9f4 2cbe e63b 223f 8e83 333f 6001 46be
00000010: 3c71 91be c711 82be 7a4e 0e3f 0ec6 45be
00000020: 4ced 2b3f 5f38 6abe b429 77be 5ae3 143f
00000030: 939f 1b3f b871 80be e6b5 193f 771f 1d3f
00000040: c997 97be c95c 79be 842a 113f cd2b 203f
00000050: a3a6 4cbe c354 163f 66d1 83ac 2919 303f
00000060: 38a9 1b3f 99bd 243f e181 a2be bdf9 70be
00000070: 8577 0e3f b137 8fbe 4526 64be 2265 143f
